…
ˆâ–ˆâ–Ž         | 62.1M/83.3M [00:00<00:00, 71.0MB/s] 83%|â–ˆâ–ˆâ–ˆâ–ˆâ–ˆâ–ˆâ–ˆâ–ˆâ–ˆâ–ˆâ–ˆâ–ˆâ–ˆâ–ˆâ–ˆâ–ˆâ–ˆâ–ˆâ–ˆâ–ˆâ–ˆâ–ˆâ–ˆâ–ˆâ–ˆâ–ˆâ–ˆâ–ˆâ–ˆâ–ˆâ–ˆâ–‹      | 69.4M/83.3M [00:00<00:00, 71.4MB/s] 94%|â–ˆâ–ˆâ–ˆâ–ˆâ–ˆâ–ˆâ–ˆâ–ˆâ–ˆâ–ˆâ–ˆâ–ˆâ–ˆâ–ˆâ–ˆâ–ˆâ–ˆâ–ˆâ–ˆâ–ˆâ–ˆâ–ˆâ–ˆâ–ˆâ–ˆâ–ˆâ–ˆâ–ˆâ–ˆâ–ˆâ–ˆâ–ˆâ–ˆâ–ˆâ–ˆâ–‹  | 78.1M/83.3M [00:01<00:00, 76.8MB/s]100%|â–ˆâ–ˆâ–ˆâ–ˆâ–ˆâ–ˆâ–ˆâ–ˆâ–ˆâ–ˆâ–ˆâ–ˆâ–ˆâ–ˆâ–ˆâ–ˆâ–ˆâ–ˆâ–ˆâ–ˆâ–ˆâ–ˆâ–ˆâ–ˆâ–ˆâ–ˆâ–ˆâ–ˆâ–ˆâ–ˆâ–ˆâ–ˆâ–ˆâ–ˆâ–ˆâ–ˆâ–ˆâ–ˆ| 83.3M/83.3M [00:01<00:00, 81.3MB/s]
37.1s 16 classifier resnet34
37.1s 17 AGNet(
37.1s 18 (base_model): ResNet(
37.1s 19 (conv1): Conv2d(3, 64, kernel_size=(7, 7), stride=(2, 2), padding=(3, 3), bias=False)
37.1s 20 (bn1): BatchNorm2d(64, eps=1e-05, momentum=0.1, affine=True, track_running_stats=True)
37.1s 21 (relu): ReLU(inplace=True)
37.1s 22 (maxpool): MaxPool2d(kernel_size=3, stride=2, padding=1, dilation=1, ceil_mode=False)
37.1s 23 (layer1): Sequential(
37.1s 24 (0): BasicBlock(
37.1s 25 (conv1): Conv2d(64, 64, kernel_size=(3, 3), stride=(1, 1), padding=(1, 1), bias=False)
37.1s 26 (bn1): BatchNorm2d(64, eps=1e-05, momentum=0.1, affine=True, track_running_stats=True)
37.1s 27 (relu): ReLU(inplace=True)
37.1s 28 (conv2): Conv2d(64, 64, kernel_size=(3, 3), stride=(1, 1), padding=(1, 1), bias=False)
37.1s 29 (bn2): BatchNorm2d(64, eps=1e-05, momentum=0.1, affine=True, track_running_stats=True)
37.1s 30 )
37.1s 31 (1): BasicBlock(
37.1s 32 (conv1): Conv2d(64, 64, kernel_size=(3, 3), stride=(1, 1), padding=(1, 1), bias=False)
37.1s 33 (bn1): BatchNorm2d(64, eps=1e-05, momentum=0.1, affine=True, track_running_stats=True)
37.1s 34 (relu): ReLU(inplace=True)
37.1s 35 (conv2): Conv2d(64, 64, kernel_size=(3, 3), stride=(1, 1), padding=(1, 1), bias=False)
37.1s 36 (bn2): BatchNorm2d(64, eps=1e-05, momentum=0.1, affine=True, track_running_stats=True)
37.1s 37 )
37.1s 38 (2): BasicBlock(
37.1s 39 (conv1): Conv2d(64, 64, kernel_size=(3, 3), stride=(1, 1), padding=(1, 1), bias=False)
37.1s 40 (bn1): BatchNorm2d(64, eps=1e-05, momentum=0.1, affine=True, track_running_stats=True)
37.1s 41 (relu): ReLU(inplace=True)
37.1s 42 (conv2): Conv2d(64, 64, kernel_size=(3, 3), stride=(1, 1), padding=(1, 1), bias=False)
37.1s 43 (bn2): BatchNorm2d(64, eps=1e-05, momentum=0.1, affine=True, track_running_stats=True)
37.1s 44 )
37.1s 45 )
37.1s 46 (layer2): Sequential(
37.1s 47 (0): BasicBlock(
37.1s 48 (conv1): Conv2d(64, 128, kernel_size=(3, 3), stride=(2, 2), padding=(1, 1), bias=False)
37.1s 49 (bn1): BatchNorm2d(128, eps=1e-05, momentum=0.1, affine=True, track_running_stats=True)
37.1s 50 (relu): ReLU(inplace=True)
37.1s 51 (conv2): Conv2d(128, 128, kernel_size=(3, 3), stride=(1, 1), padding=(1, 1), bias=False)
37.1s 52 (bn2): BatchNorm2d(128, eps=1e-05, momentum=0.1, affine=True, track_running_stats=True)
37.1s 53 (downsample): Sequential(
37.1s 54 (0): Conv2d(64, 128, kernel_size=(1, 1), stride=(2, 2), bias=False)
37.1s 55 (1): BatchNorm2d(128, eps=1e-05, momentum=0.1, affine=True, track_running_stats=True)
37.1s 56 )
37.1s 57 )
37.1s 58 (1): BasicBlock(
37.1s 59 (conv1): Conv2d(128, 128, kernel_size=(3, 3), stride=(1, 1), padding=(1, 1), bias=False)
37.1s 60 (bn1): BatchNorm2d(128, eps=1e-05, momentum=0.1, affine=True, track_running_stats=True)
37.1s 61 (relu): ReLU(inplace=True)
37.1s 62 (conv2): Conv2d(128, 128, kernel_size=(3, 3), stride=(1, 1), padding=(1, 1), bias=False)
37.1s 63 (bn2): BatchNorm2d(128, eps=1e-05, momentum=0.1, affine=True, track_running_stats=True)
37.1s 64 )
37.1s 65 (2): BasicBlock(
37.1s 66 (conv1): Conv2d(128, 128, kernel_size=(3, 3), stride=(1, 1), padding=(1, 1), bias=False)
37.1s 67 (bn1): BatchNorm2d(128, eps=1e-05, momentum=0.1, affine=True, track_running_stats=True)
37.1s 68 (relu): ReLU(inplace=True)
37.1s 69 (conv2): Conv2d(128, 128, kernel_size=(3, 3), stride=(1, 1), padding=(1, 1), bias=False)
37.1s 70 (bn2): BatchNorm2d(128, eps=1e-05, momentum=0.1, affine=True, track_running_stats=True)
37.1s 71 )
37.1s 72 (3): BasicBlock(
37.1s 73 (conv1): Conv2d(128, 128, kernel_size=(3, 3), stride=(1, 1), padding=(1, 1), bias=False)
37.1s 74 (bn1): BatchNorm2d(128, eps=1e-05, momentum=0.1, affine=True, track_running_stats=True)
37.1s 75 (relu): ReLU(inplace=True)
37.1s 76 (conv2): Conv2d(128, 128, kernel_size=(3, 3), stride=(1, 1), padding=(1, 1), bias=False)
37.1s 77 (bn2): BatchNorm2d(128, eps=1e-05, momentum=0.1, affine=True, track_running_stats=True)
37.1s 78 )
37.1s 79 )
37.1s 80 (layer3): Sequential(
37.1s 81 (0): BasicBlock(
37.1s 82 (conv1): Conv2d(128, 256, kernel_size=(3, 3), stride=(2, 2), padding=(1, 1), bias=False)
37.1s 83 (bn1): BatchNorm2d(256, eps=1e-05, momentum=0.1, affine=True, track_running_stats=True)
37.1s 84 (relu): ReLU(inplace=True)
37.1s 85 (conv2): Conv2d(256, 256, kernel_size=(3, 3), stride=(1, 1), padding=(1, 1), bias=False)
37.1s 86 (bn2): BatchNorm2d(256, eps=1e-05, momentum=0.1, affine=True, track_running_stats=True)
37.1s 87 (downsample): Sequential(
37.1s 88 (0): Conv2d(128, 256, kernel_size=(1, 1), stride=(2, 2), bias=False)
37.1s 89 (1): BatchNorm2d(256, eps=1e-05, momentum=0.1, affine=True, track_running_stats=True)
37.1s 90 )
37.1s 91 )
37.1s 92 (1): BasicBlock(
37.1s 93 (conv1): Conv2d(256, 256, kernel_size=(3, 3), stride=(1, 1), padding=(1, 1), bias=False)
37.1s 94 (bn1): BatchNorm2d(256, eps=1e-05, momentum=0.1, affine=True, track_running_stats=True)
37.1s 95 (relu): ReLU(inplace=True)
37.1s 96 (conv2): Conv2d(256, 256, kernel_size=(3, 3), stride=(1, 1), padding=(1, 1), bias=False)
37.1s 97 (bn2): BatchNorm2d(256, eps=1e-05, momentum=0.1, affine=True, track_running_stats=True)
37.1s 98 )
37.1s 99 (2): BasicBlock(
37.1s 100 (conv1): Conv2d(256, 256, kernel_size=(3, 3), stride=(1, 1), padding=(1, 1), bias=False)
37.1s 101 (bn1): BatchNorm2d(256, eps=1e-05, momentum=0.1, affine=True, track_running_stats=True)
37.1s 102 (relu): ReLU(inplace=True)
37.1s 103 (conv2): Conv2d(256, 256, kernel_size=(3, 3), stride=(1, 1), padding=(1, 1), bias=False)
37.1s 104 (bn2): BatchNorm2d(256, eps=1e-05, momentum=0.1, affine=True, track_running_stats=True)
37.1s 105 )
37.1s 106 (3): BasicBlock(
37.1s 107 (conv1): Conv2d(256, 256, kernel_size=(3, 3), stride=(1, 1), padding=(1, 1), bias=False)
37.1s 108 (bn1): BatchNorm2d(256, eps=1e-05, momentum=0.1, affine=True, track_running_stats=True)
37.1s 109 (relu): ReLU(inplace=True)
37.1s 110 (conv2): Conv2d(256, 256, kernel_size=(3, 3), stride=(1, 1), padding=(1, 1), bias=False)
37.1s 111 (bn2): BatchNorm2d(256, eps=1e-05, momentum=0.1, affine=True, track_running_stats=True)
37.1s 112 )
37.1s 113 (4): BasicBlock(
37.1s 114 (conv1): Conv2d(256, 256, kernel_size=(3, 3), stride=(1, 1), padding=(1, 1), bias=False)
37.1s 115 (bn1): BatchNorm2d(256, eps=1e-05, momentum=0.1, affine=True, track_running_stats=True)
37.1s 116 (relu): ReLU(inplace=True)
37.1s 117 (conv2): Conv2d(256, 256, kernel_size=(3, 3), stride=(1, 1), padding=(1, 1), bias=False)
37.1s 118 (bn2): BatchNorm2d(256, eps=1e-05, momentum=0.1, affine=True, track_running_stats=True)
37.1s 119 )
37.1s 120 (5): BasicBlock(
37.1s 121 (conv1): Conv2d(256, 256, kernel_size=(3, 3), stride=(1, 1), padding=(1, 1), bias=False)
37.1s 122 (bn1): BatchNorm2d(256, eps=1e-05, momentum=0.1, affine=True, track_running_stats=True)
37.1s 123 (relu): ReLU(inplace=True)
37.1s 124 (conv2): Conv2d(256, 256, kernel_size=(3, 3), stride=(1, 1), padding=(1, 1), bias=False)
37.1s 125 (bn2): BatchNorm2d(256, eps=1e-05, momentum=0.1, affine=True, track_running_stats=True)
37.1s 126 )
37.1s 127 )
37.1s 128 (layer4): Sequential(
37.1s 129 (0): BasicBlock(
37.1s 130 (conv1): Conv2d(256, 512, kernel_size=(3, 3), stride=(2, 2), padding=(1, 1), bias=False)
37.1s 131 (bn1): BatchNorm2d(512, eps=1e-05, momentum=0.1, affine=True, track_running_stats=True)
37.1s 132 (relu): ReLU(inplace=True)
37.1s 133 (conv2): Conv2d(512, 512, kernel_size=(3, 3), stride=(1, 1), padding=(1, 1), bias=False)
37.1s 134 (bn2): BatchNorm2d(512, eps=1e-05, momentum=0.1, affine=True, track_running_stats=True)
37.1s 135 (downsample): Sequential(
37.1s 136 (0): Conv2d(256, 512, kernel_size=(1, 1), stride=(2, 2), bias=False)
37.1s 137 (1): BatchNorm2d(512, eps=1e-05, momentum=0.1, affine=True, track_running_stats=True)
37.1s 138 )
37.1s 139 )
37.1s 140 (1): BasicBlock(
37.1s 141 (conv1): Conv2d(512, 512, kernel_size=(3, 3), stride=(1, 1), padding=(1, 1), bias=False)
37.1s 142 (bn1): BatchNorm2d(512, eps=1e-05, momentum=0.1, affine=True, track_running_stats=True)
37.1s 143 (relu): ReLU(inplace=True)
37.1s 144 (conv2): Conv2d(512, 512, kernel_size=(3, 3), stride=(1, 1), padding=(1, 1), bias=False)
37.1s 145 (bn2): BatchNorm2d(512, eps=1e-05, momentum=0.1, affine=True, track_running_stats=True)
37.1s 146 )
37.1s 147 (2): BasicBlock(
37.1s 148 (conv1): Conv2d(512, 512, kernel_size=(3, 3), stride=(1, 1), padding=(1, 1), bias=False)
37.1s 149 (bn1): BatchNorm2d(512, eps=1e-05, momentum=0.1, affine=True, track_running_stats=True)
37.1s 150 (relu): ReLU(inplace=True)
37.1s 151 (conv2): Conv2d(512, 512, kernel_size=(3, 3), stride=(1, 1), padding=(1, 1), bias=False)
37.1s 152 (bn2): BatchNorm2d(512, eps=1e-05, momentum=0.1, affine=True, track_running_stats=True)
37.1s 153 )
37.1s 154 )
37.1s 155 (avgpool): AdaptiveAvgPool2d(output_size=(1, 1))
37.1s 156 (fc): Sequential(
37.1s 157 (0): Linear(in_features=512, out_features=1, bias=True)
37.1s 158 )
37.1s 159 )
37.1s 160 )
37.7s 161 torch.Size([1, 1])
42.4s 162 /kaggle/working/gender_resnet34/cp
42.4s 163 ********************
42.4s 164 EPOCH: 0 started
50.3s 165 (Train) e=0 b=0 l=0.690, a_l= 0.690, m=0.562, a_m=0.562
64.0s 166 (Train) e=0 b=20 l=0.758, a_l= 0.841, m=0.422, a_m=0.519
77.5s 167 (Train) e=0 b=40 l=0.728, a_l= 0.779, m=0.375, a_m=0.526
…
